start/app/src/main/assets/mnist.tflite (tflite, 116608 bytes, 6 tensors)

sequential/dense/BiasAdd/ReadVariableOp f4 [10]
000000 ef 57 eb 3b a8 cb 2b 3e 7b 73 4f 3d f4 68 f4 bc
       0.0071821134 0.16776907 0.05064724 -0.029835202
000010 ab 26 6e bd f6 de 46 3d 5e 39 1c bc 77 40 96 3d
       -0.058142345 0.048552476 -0.009535162 0.073365144
000020 8b ad 09 be df 07 65 bd
       -0.13445108 -0.05591571

sequential/conv2d/BiasAdd/ReadVariableOp f4 [32]
000000 8e e3 b6 bb 6c dd 4a bd ba 60 4c 3d b9 fd 77 bc
       -0.005581326 -0.04952757 0.049896933 -0.015136176
000010 f5 2b 20 bd bd e9 f1 3c 60 a2 07 bc 56 82 88 bd
       -0.03910442 0.0295304 -0.008278459 -0.066654846
000020 0f 07 48 3d 44 c5 48 bc 4f 29 b1 3c a2 20 df 3a
       0.048834857 -0.012254063 0.021626143 0.0017023275
000030 22 27 68 bd af ba 57 bd 1c 96 02 bd d5 51 82 3d
       -0.056677945 -0.05266827 -0.031881437 0.063632645
000040 0d e2 55 bc 87 c6 8b bc be cc ae bb a2 76 9e bc
       -0.013054383 -0.017062439 -0.0053344658 -0.019343678
000050 79 46 1a bc 53 4a 11 bd 80 2f 94 bc 5c 5c c6 3b
       -0.009416216 -0.03547127 -0.018089056 0.0060534906
000060 49 8b 9f bc ef e9 3c 3d 3c b4 8f bd 67 a9 c5 bb
       -0.019475596 0.046121534 -0.07016799 -0.006032157
000070 10 58 af bd 0e b7 00 bd 3a 1e e0 bb 48 75 3b bd
       -0.085617185 -0.031424575 -0.006839541 -0.045766145

sequential/conv2d_1/BiasAdd/ReadVariableOp f4 [64]
000000 27 b4 86 bd be a7 59 ba 73 3d af bd b2 e7 40 3a
       -0.0657733 -0.00083028886 -0.085566424 0.0007358744
000010 9c d0 74 bd a2 65 aa bc 85 7a c8 bd e0 11 14 bd
       -0.059769258 -0.020800415 -0.09788994 -0.03614986
000020 a9 25 a0 3c d4 16 d5 bd af 91 b8 bd 67 58 42 bc
       0.019549208 -0.10404745 -0.09012162 -0.011861897
000030 0a 99 0b be 13 b9 40 bc bd 57 5e bd 57 84 b6 bd
       -0.13632599 -0.011762875 -0.054282892 -0.089119606
000040 64 44 e1 bc 0d 01 35 bd 04 97 77 3d a0 80 22 bd
       -0.027498432 -0.044190455 0.060446754 -0.039673448
000050 21 bd 41 bd 4e 8a 4b 3d 9b 55 35 bd b2 ba aa bc
       -0.047299508 0.049692445 -0.044271093 -0.020840976
000060 2f 05 db bc df 1a 68 bd cd 10 88 bd ec 22 9b 3b
       -0.02673587 -0.05666625 -0.066438295 0.0047343876
000070 39 57 70 bc a0 5a 33 bd 31 a5 a8 bd 8b b5 97 bd
       -0.014669233 -0.0437876 -0.08234633 -0.074076734
000080 38 5b c4 bd dc eb 54 bd 43 01 34 bd 1a 0f b8 bc
       -0.09587711 -0.051982746 -0.043946516 -0.022468138
000090 f8 63 38 3d 5c 0d 55 bd 1f 8e 53 bd 7a c0 b6 bd
       0.045017213 -0.052014694 -0.05164921 -0.08923431
0000a0 81 a2 c4 bd 42 9c ae bc 55 cd 85 bd e3 ad 3b bd
       -0.09601308 -0.021314744 -0.065333046 -0.04582013
0000b0 eb 19 7a bd 40 6d cb 3c 63 fd 8b 3c 94 78 85 bd
       -0.061059874 0.024832368 0.017088598 -0.06517139
0000c0 bc 8f 5e bd 97 7b e4 bc de 62 1e 3d 5a e0 40 3c
       -0.054336295 -0.027890963 0.038668506 0.01177224
0000d0 f0 2c 85 bd 7c a9 b2 3c 10 b7 01 3d d8 90 57 bd
       -0.06502712 0.021809332 0.031668723 -0.05262837
0000e0 11 eb 39 bd a1 8e d3 bc a3 6e b7 bd df f9 2c 3c
       -0.045390192 -0.025824847 -0.08956649 0.010557621
0000f0 bf ed de bc 55 3e 27 bd 26 90 bf bd d9 de 86 bd
       -0.027212976 -0.04083093 -0.09353666 -0.065854736

sequential/conv2d/Conv2D f4 [32, 3, 3, 1]
000000 3e 3e 0c 3e e4 7c 2a 3e 08 c3 9e 3d 11 75 f3 bd
       0.13695619 0.16649204 0.07752043 -0.11887563
000010 6c f3 ff 3d 98 43 fa 3d cf b8 aa be b7 34 0a be
       0.12497601 0.12219924 -0.33344123 -0.13496672
000020 b1 c4 55 bd 0c 28 d8 3d 31 13 a5 3d e3 35 4e be
       -0.052189533 0.10554513 0.08060301 -0.20137744
000030 38 6f fa bd 8f ee be 3d cc 8a 98 3d 84 e3 b7 bc
       -0.122282445 0.09322845 0.074483484 -0.022447355
000040 87 f1 c8 bd 81 1c 64 bd 8a c7 2e 3e 48 14 d3 3d
       -0.09811693 -0.055691246 0.17068306 0.10306603
000050 a9 1d 39 be eb 3a 8b 3e 44 51 94 ba 8a d1 88 be
       -0.1807772 0.27193388 -0.0011315723 -0.26722366
000060 68 1f 03 3d f6 17 09 be a6 e8 bd be 31 4b 57 3e
       0.032012373 -0.13388047 -0.3709156 0.21024777
000070 69 70 d5 bc e6 f5 99 be 78 22 2a 3e e6 7a 36 be
       -0.026054578 -0.30070418 0.16614711 -0.1782032
000080 e7 97 b9 bd bf da 95 3e 23 f7 bd 3d b3 8e 4f 3c
       -0.09062176 0.29268453 0.09275653 0.0126682995
000090 78 91 57 be ed 59 2c 3e ba c7 9f 3e 6f ba 61 bd
       -0.21051586 0.16831179 0.31207067 -0.055109438
0000a0 66 d4 53 3d d7 bd 03 3d 0b f5 cc bc d3 ff 91 3d
       0.05171623 0.032163467 -0.02501919 0.07128873
0000b0 61 3b 15 be d2 0a 3a 3c 7c 1b 58 3e 4d d3 5b 3e
       -0.14573433 0.011355119 0.21104234 0.21467324
0000c0 9f 78 3e be 42 4a 01 bc 0d 35 89 3e 7c 7c be be
       -0.18600701 -0.00789124 0.26798287 -0.3720435
0000d0 65 74 5f be a5 3f 32 3d 09 1e 9b 3c c4 cd 56 3e
       -0.21821745 0.043517727 0.01893522 0.20976931
0000e0 b5 d9 79 3e ee c1 a3 bd 82 1a 3b be 53 c8 54 3e
       0.24399455 -0.079959735 -0.1827183 0.20779543
0000f0 52 d2 72 be 9d 5e 79 be 3e 27 2a 3e 2e 00 f8 bb
       -0.23713043 -0.24352498 0.16616532 -0.007568381
000100 db 23 da 3a ac 13 c9 bd ac f4 cc 3c 5b 9c 3c 3e
       0.0016642766 -0.09818205 0.025019012 0.1841902
000110 fa 1b 21 bc 4c c9 80 be 8d 97 6f 3d 18 b2 17 3e
       -0.00983333 -0.25153577 0.05849414 0.14814031
000120 e0 7f 16 be cf 11 b6 be 18 8a 9f be 5b 89 04 3e
       -0.14697218 -0.35560462 -0.31160045 0.12943022
000130 7a e7 ee 3d 7c b7 26 be b5 f2 e9 3d d8 8a 59 3e
       0.116652444 -0.16280931 0.11423246 0.21244371
000140 f6 7c 50 3e 9d 96 57 be c1 29 23 3e bc 5e 8b 3e
       0.20360169 -0.21053548 0.15933897 0.27220714
000150 a8 bc 8e bd 59 00 82 bc 99 73 4a be 15 db 83 3e
       -0.06969577 -0.015869306 -0.1977066 0.25753084
000160 d7 05 b9 3d e6 00 31 be 16 96 5f 3e 72 04 74 bc
       0.09034317 -0.17285499 0.21834597 -0.014893638
000170 7a 22 16 3e 2b f7 66 bd 73 0b 22 be ca 85 b3 3d
       0.1466159 -0.05638806 -0.1582468 0.087657526
000180 2f 87 6a be 3b 43 ce bd 16 e1 3b 3d 9c 56 57 3e
       -0.22903131 -0.10071417 0.045868956 0.21029133
000190 38 05 92 bd 4a 8f 8f 3d 94 6c dc bd 65 63 eb bc
       -0.07129902 0.07009752 -0.10762897 -0.028733918
0001a0 4b 81 1d bd 2c 2b 75 be 30 21 b7 bc b5 3b b9 3d
       -0.03845338 -0.2394225 -0.022354692 0.09044591
0001b0 cf 6a 21 be c2 32 32 be af 87 e9 3d bf 19 4a be
       -0.157634 -0.17402175 0.11402833 -0.19736384
0001c0 0c 4d 8c bc a1 5d cb 3d d3 4b ea 3d b6 e8 21 3e
       -0.017126583 0.09929968 0.114402436 0.15811428
0001d0 58 65 14 3e b4 e6 88 3e 4b ed 13 3e b3 7b f9 bd
       0.14491785 0.26738513 0.14445989 -0.12181797
0001e0 f1 ca a6 bc c0 60 c4 3c 64 d0 3f be 00 62 8c bd
       -0.020360442 0.023971915 -0.18731838 -0.068546295
0001f0 c9 df bc 3c a4 ce 0c 3e 05 ff 19 3e f6 14 18 be
       0.023055928 0.13750702 0.15038688 -0.14851746
000200 ae 8f d5 bc 5d 8e 2b 3e 6c cb 0c be 7b 96 4a 3d
       -0.026069488 0.16753526 -0.13749474 0.049459916
000210 61 51 11 be 49 cd 58 bc c7 b9 0d 3e d1 e9 0f 3e
       -0.141912 -0.013232538 0.138404 0.14054038
000220 44 73 c2 3d 97 73 88 3e c9 94 30 3e 28 f2 eb bc
       0.094946414 0.26650688 0.17244257 -0.028801993
000230 72 1a 0d be 65 5c 88 be 1b d0 5e be 4b c5 9e be
       -0.1377962 -0.2663299 -0.21759073 -0.31009898
000240 38 00 3d be 0d 5d 39 3b 4a d7 08 3e 57 2d 47 3e
       -0.18457115 0.0028284222 0.13363376 0.1945089
000250 cb 5a 31 3e 40 78 5e be 6e 6c 28 be 38 14 0d be
       0.17319791 -0.21725559 -0.16447613 -0.13777244
000260 09 7c d9 3d b4 49 5a 3c bb 34 18 be 94 1d a8 be
       0.10619361 0.013323236 -0.14863865 -0.32835066
000270 2e b0 02 3e db df 4b bc 87 31 7f bd a5 8d 8f 3e
       0.1276252 -0.012443508 -0.062303092 0.28037754
000280 0c ba e8 bb 53 a8 48 3e 3a 24 98 be 0d b4 27 3c
       -0.0071022566 0.1959546 -0.2971514 0.010235799
000290 00 f8 6e bd a0 5a 83 be 90 5f ef 3d bd 7a 04 3d
       -0.05834198 -0.2565508 0.11688149 0.032343615
0002a0 81 50 8e bd a5 3d 62 3e f8 86 67 3e 5a 18 7a 3e
       -0.06948949 0.22093828 0.2261008 0.24423352
0002b0 b5 fc 4f 3e 46 75 e6 bd 79 a4 8f 3d b7 3d a5 3d
       0.20311244 -0.11252837 0.070137925 0.08068412
0002c0 55 24 79 be 8f 6c a7 3b 83 05 ac bd 12 49 13 bc
       -0.24330266 0.0051093767 -0.08399489 -0.008989589
0002d0 3f 57 64 be cc 7b 41 be b9 df e6 3c db e5 16 bd
       -0.22298907 -0.18894881 0.028182851 -0.0368403
0002e0 39 dd fb 3c 32 77 21 3e c9 50 cd 3c d1 f3 f9 bd
       0.030745136 0.15768126 0.025062935 -0.122047074
0002f0 7b 03 26 3e 67 ea 34 be 3b 98 d4 bd c9 5f 40 3e
       0.16212265 -0.17667542 -0.10380598 0.18786539
000300 d1 33 eb bd 52 ef 90 bc 99 f9 1a 3e 2c cd 51 3e
       -0.114844926 -0.017692242 0.15134276 0.20488423
000310 fa ae 34 3e f8 b7 3d be 4c 06 5d be c7 4b a3 bd
       0.17644873 -0.1852721 -0.21584433 -0.07973438
000320 06 2d 2f 3e 3f 6c 1f 3c e6 cc 6f bd 47 f3 5e 3e
       0.17107019 0.009730398 -0.058545016 0.2177249
000330 a4 d5 88 ba c7 2c 61 bd d9 28 cd 3d 20 60 cc bd
       -0.0010439646 -0.054974344 0.10017557 -0.09979272
000340 50 82 46 be a8 37 63 be 5b 7f 3a 3d c9 3b 65 3d
       -0.19385648 -0.221892 0.045531612 0.05596522
000350 6f 01 57 3e 01 10 89 3e 0e 5e 6b bd 04 71 9c bb
       0.2099664 0.26770023 -0.057462744 -0.0047742147
000360 04 39 b8 bb 4c 38 94 3d a2 b3 8b 3e 15 5e df bc
       -0.005622031 0.072373 0.27285486 -0.027266541
000370 70 3c b3 3d 6e 88 60 3d c4 7e aa be 76 2a 24 be
       0.08751762 0.05481761 -0.3329984 -0.16031823
000380 52 51 d0 3d df 31 91 3e 8f c0 60 3e 5e 64 cb 3d
       0.101717606 0.2835836 0.21948455 0.09931253
000390 93 8d c3 3d ec 58 14 bd 06 c7 fd bd 96 15 b6 bd
       0.095484875 -0.036217615 -0.12391476 -0.08890836
0003a0 d7 ec 91 be 07 82 b3 be 59 64 ad 3b 5b 9b 5a bd
       -0.28501007 -0.3506014 0.0052915034 -0.053370815
0003b0 5d d0 fc bd 01 0a f4 3c 61 d8 08 3e 7c 2f 26 3d
       -0.1234443 0.029789926 0.13363792 0.04057263
0003c0 3a e9 9d 3d 10 80 8f 3d 0c fd 8d bd a5 6d a1 3d
       0.077105 0.07006848 -0.069330305 0.07882241
0003d0 8f 16 50 3e 6f 82 71 3e 76 3f 80 bd c7 8b 23 3d
       0.20321105 0.23584913 -0.06262104 0.039928224
0003e0 d6 12 bc bc 9e 64 82 bd 8e d6 bb be 59 c6 92 be
       -0.0229582 -0.063668475 -0.3668713 -0.28666952
0003f0 9b 81 61 3d 73 e5 84 3d 5a b9 67 3d b1 67 82 3d
       0.055055242 0.064890765 0.05657325 0.06367434

sequential/conv2d_1/Conv2D i1 [64, 3, 3, 32]
000000 cd 05 f0 07 16 c6 ea fb bb 07 ef e5 02 09 02 d8
       -51 5 -16 7 22 -58 -22 -5 -69 7 -17 -27 2 9 2 -40
000010 f0 da ed 2b f4 05 fb d9 fb ff 21 ec 24 e2 e1 fb
       -16 -38 -19 43 -12 5 -5 -39 -5 -1 33 -20 36 -30 -31 -5
000020 cb ea 05 ff 21 b8 ee f7 8f 16 ed f8 e9 1a d0 0d
       -53 -22 5 -1 33 -72 -18 -9 -113 22 -19 -8 -23 26 -48 13
000030 ec d6 e3 13 f7 18 0d ad f3 0d f7 06 13 f0 e7 f2
       -20 -42 -29 19 -9 24 13 -83 -13 13 -9 6 19 -16 -25 -14
000040 06 02 14 e5 2c dc e9 d3 94 51 18 0f e3 10 e9 26
       6 2 20 -27 44 -36 -23 -45 -108 81 24 15 -29 16 -23 38
000050 0f b3 fb 31 d6 05 f8 8f d9 31 ea 2e 27 c8 f2 08
       15 -77 -5 49 -42 5 -8 -113 -39 49 -22 46 39 -56 -14 8
000060 fe 02 ca 04 0d f4 e7 06 81 eb f4 1b ee 35 01 bc
       -2 2 -54 4 13 -12 -25 6 -127 -21 -12 27 -18 53 1 -68
000070 ec e2 e9 0f f6 f3 f1 bd 0a d9 00 aa 1f e4 0a df
       -20 -30 -23 15 -10 -13 -15 -67 10 -39 0 -86 31 -28 10 -33
000080 d8 02 e7 11 f6 ea bb df c4 fc c9 f2 f0 2c e7 ee
       -40 2 -25 17 -10 -22 -69 -33 -60 -4 -55 -14 -16 44 -25 -18
000090 dd 10 ef 0b d2 ff d0 e5 ec 05 1e e2 20 ec 15 d9
       -35 16 -17 11 -46 -1 -48 -27 -20 5 30 -30 32 -20 21 -39
0000a0 e2 11 11 2a f1 01 b4 e4 ec 06 e4 b5 09 1c d2 0e
       -30 17 17 42 -15 1 -76 -28 -20 6 -28 -75 9 28 -46 14
0000b0 da 32 f3 03 eb be c7 f2 c9 12 ff 12 1e f8 32 e9
       -38 50 -13 3 -21 -66 -57 -14 -55 18 -1 18 30 -8 50 -23
0000c0 43 21 bc e5 f4 1d 20 27 f9 bd 2c 26 dd f6 05 c5
       67 33 -68 -27 -12 29 32 39 -7 -67 44 38 -35 -10 5 -59
0000d0 1b f4 06 fa ee b9 f8 da 3a eb f2 e7 ef ef f9 20
       27 -12 6 -6 -18 -71 -8 -38 58 -21 -14 -25 -17 -17 -7 32
0000e0 2a f0 d4 f9 ef 2a 06 2d f8 ee fc 15 db 14 e3 d5
       42 -16 -44 -7 -17 42 6 45 -8 -18 -4 21 -37 20 -29 -43
0000f0 f0 0e ef fa ec d6 d3 f8 3e d0 0e d0 0b e6 1c 12
       -16 14 -17 -6 -20 -42 -45 -8 62 -48 14 -48 11 -26 28 18

sequential/dense/MatMul i1 [10, 9216] scale=0.00485871 zero_point=0
000000 fe f6 fb 00 f6 f6 fb f3 00 fb ff f0 fb 15 fa ff
       -0.00971742 -0.0485871 -0.02429355 0.0 -0.0485871 -0.0485871 -0.02429355 -0.06316323 0.0 -0.02429355 -0.00485871 -0.07773936 -0.02429355 0.10203291 -0.02915226 -0.00485871
000010 d9 fe e9 f7 fc 03 10 f8 05 03 fa 0e ed ef f9 f7
       -0.18948969 -0.00971742 -0.11175033 -0.04372839 -0.01943484 0.01457613 0.07773936 -0.03886968 0.02429355 0.01457613 -0.02915226 0.06802194 -0.09231549 -0.08259807 -0.03401097 -0.04372839
000020 fc 02 06 04 f5 f7 04 04 eb 05 fd 02 fc ed fc 02
       -0.01943484 0.00971742 0.02915226 0.01943484 -0.05344581 -0.04372839 0.01943484 0.01943484 -0.10203291 0.02429355 -0.01457613 0.00971742 -0.01943484 -0.09231549 -0.01943484 0.00971742
000030 fc fa 0c f7 00 fe 0a ff 10 eb 01 fa f7 17 ff 03
       -0.01943484 -0.02915226 0.05830452 -0.04372839 0.0 -0.00971742 0.0485871 -0.00485871 0.07773936 -0.10203291 0.00485871 -0.02915226 -0.04372839 0.11175033 -0.00485871 0.01457613
000040 f7 f9 fa f6 f8 e1 f9 f9 f1 f9 f5 0c fa e1 f4 fb
       -0.04372839 -0.03401097 -0.02915226 -0.0485871 -0.03886968 -0.15062001 -0.03401097 -0.03401097 -0.07288065 -0.03401097 -0.05344581 0.05830452 -0.02915226 -0.15062001 -0.05830452 -0.02429355
000050 f6 04 ec 05 f7 f7 ff f9 eb fe f8 0d f7 fd f7 f6
       -0.0485871 0.01943484 -0.0971742 0.02429355 -0.04372839 -0.04372839 -0.00485871 -0.03401097 -0.10203291 -0.00971742 -0.03886968 0.06316323 -0.04372839 -0.01457613 -0.04372839 -0.0485871
000060 f9 f0 0a e8 fa 00 01 0e 0b fb 04 f2 03 eb f5 f8
       -0.03401097 -0.07773936 0.0485871 -0.11660904 -0.02915226 0.0 0.00485871 0.06802194 0.05344581 -0.02429355 0.01943484 -0.06802194 0.01457613 -0.10203291 -0.05344581 -0.03886968
000070 09 00 ef ed e7 fe 11 f3 04 f9 f0 f5 03 0d f6 f4
       0.04372839 0.0 -0.08259807 -0.09231549 -0.12146775 -0.00971742 0.08259807 -0.06316323 0.01943484 -0.03401097 -0.07773936 -0.05344581 0.01457613 0.06316323 -0.0485871 -0.05830452
000080 ec fd fb e8 fa e7 00 f3 e3 fc f8 ff 01 ed f3 fc
       -0.0971742 -0.01457613 -0.02429355 -0.11660904 -0.02915226 -0.12146775 0.0 -0.06316323 -0.14090258 -0.01943484 -0.03886968 -0.00485871 0.00485871 -0.09231549 -0.06316323 -0.01943484
000090 00 ff 18 fc fe fa 04 fe fa 0a 07 08 f3 f8 02 fe
       0.0 -0.00485871 0.11660904 -0.01943484 -0.00971742 -0.02915226 0.01943484 -0.00971742 -0.02915226 0.0485871 0.03401097 0.03886968 -0.06316323 -0.03886968 0.00971742 -0.00971742
0000a0 f5 fa 03 ed 02 06 fc fb 09 0c 04 e2 fb f2 f4 ff
       -0.05344581 -0.02915226 0.01457613 -0.09231549 0.00971742 0.02915226 -0.01943484 -0.02429355 0.04372839 0.05830452 0.01943484 -0.1457613 -0.02429355 -0.06802194 -0.05830452 -0.00485871
0000b0 f0 fb e1 ef f3 fb fd f3 08 e5 ef f4 f8 10 fe f3
       -0.07773936 -0.02429355 -0.15062001 -0.08259807 -0.06316323 -0.02429355 -0.01457613 -0.06316323 0.03886968 -0.13118517 -0.08259807 -0.05830452 -0.03886968 0.07773936 -0.00971742 -0.06316323
0000c0 05 12 fe eb fb fd fe f8 ef f7 f2 ee ff f6 00 fb
       0.02429355 0.08745678 -0.00971742 -0.10203291 -0.02429355 -0.01457613 -0.00971742 -0.03886968 -0.08259807 -0.04372839 -0.06802194 -0.08745678 -0.00485871 -0.0485871 0.0 -0.02429355
0000d0 ee fc 04 ff 07 f6 06 ec f0 0f e4 08 f7 e5 06 07
       -0.08745678 -0.01943484 0.01943484 -0.00485871 0.03401097 -0.0485871 0.02915226 -0.0971742 -0.07773936 0.07288065 -0.13604388 0.03886968 -0.04372839 -0.13118517 0.02915226 0.03401097
0000e0 ee fb 08 fe f8 06 04 00 f1 04 ff ef 0b f8 ff ff
       -0.08745678 -0.02429355 0.03886968 -0.00971742 -0.03886968 0.02915226 0.01943484 0.0 -0.07288065 0.01943484 -0.00485871 -0.08259807 0.05344581 -0.03886968 -0.00485871 -0.00485871
0000f0 fa f1 ed f4 f7 f3 02 06 f6 e3 f3 04 f2 0d f0 02
       -0.02915226 -0.07288065 -0.09231549 -0.05830452 -0.04372839 -0.06316323 0.00971742 0.02915226 -0.0485871 -0.14090258 -0.06316323 0.01943484 -0.06802194 0.06316323 -0.07773936 0.00971742
